demonstrations/vqe_qng/param_landscape.npy (npy, 80128 bytes, 1 tensors)

array f8 [100, 100]
1.0 1.0614105961284486 1.1185472664045446 1.1711799416231168 1.2190966885774355 1.2621045634394323 1.3000303886764 1.332721450375793
1.3600461131702537 1.3818943502867786 1.3981781865856988 1.4088320528055172 1.4138130495871821 1.4131011202146653 1.4066991313762793 1.394632861621534
1.3769508975600167 1.3537244382202647 1.3250470083564048 1.2910340818569788 1.2518226167723485 1.207570503832969 1.1584559306791384 1.1046766643622654
1.04644925500675 0.9840081638390668 0.9176048190951536 0.8475066036076476 0.7739957781495879 0.697368344869907 0.6179328553972471 0.5360091684114527
0.4519271616855617 0.36602540378443826 0.2786497907686607 0.19015215339316482 0.10088884040897306 0.011219283672541103 -0.07849544915946305 -0.16789410852218256
-0.25661671756706217 -0.34430602166157087 -0.43060892692751307 -0.5151779220254562 -0.5976724774602394 -0.677760416773068 -0.755119254098866 -0.8294374927030445
-0.9004158792689021 -0.9677686088851174 -1.031224475881253 -1.090527965877267 -1.1454402846497445 -1.1957403196719476 -1.2412255304559272 -1.2817127641115769
-1.3170389928386834 -1.3470619703823337 -1.3716608048083834 -1.3907364452926034 -1.4042120809633922 -1.412033450192046 -1.414169059085184 -1.4106103082995431
-1.4013715276684988 -1.3864899185008814 -1.3660254037844384 -1.3400603868971097 -1.30869941979771 -1.2720687820320902 -1.2303159722499766 -1.1836091142799692
-1.132136280154218 -1.0761047328087312 -1.0157400915086827 -0.9512854233592652 -0.8830002645602428 -0.8111595753452783 -0.7360526328141137 -0.6579818661157986
-0.5772616386732352 -0.4942169823526311 -0.4091822886748989 -0.3224999623390119 -0.23451904247913802 -0.14559379720723387 -0.05608229710040058 0.03365502662295805
0.12325683343243832 0.21236232847641867 0.30061271537558387 0.38765264096931606 0.47313162619744914 0.5567054773557456 0.6380376720424581 0.716800714215277
0.7926774529022971 0.8653623592570463 0.9345627568153199 0.9999999999999997 0.9979866764718842 1.0592736332022719 1.116295268875783 1.1688219774909903
1.2166422525312746 1.2595635386269175 1.2974130069076126 1.3300382509233268 1.3573079003312853 1.379112149877976 1.3953632015461475 1.4059956180864401
1.4109665865100913 1.4102560904817305 1.4038669909180996 1.3918250144681479 1.374178649920899 1.3509989529582105 1.3223792600386213 1.2884348125643768
1.2493022928449733 1.205139273725743 1.156123584097617 1.1024525928429436 1.0443424141006659 0.9820270370509518 0.9157573837233572 0.8458002986223709
0.7724374742387771 0.6959643167734175 0.6166887566406799 0.5349300085414042 0.45101728609794556 0.36528847622711114 0.27808877858880177 0.1897693155888165
0.10068571853285369 0.011196695624754782 -0.07833741242482051 -0.167556083363263 -0.25610006509187655 -0.3436128222472876 -0.4297419718435131 -0.5141407021938762
-0.5964691693992614 -0.676395865779553 -0.7535989547380559 -0.8277675666838842 -0.898603050794081 -0.9658201775750772 -1.0291482873811926 -1.0883323802654985
-1.1431341427746076 -1.1933329075528354 -1.2387265418917621 -1.2791322616473049 -1.3143873672469555 -1.344349898823533 -1.3688992078374682 -1.3879364428858878
-1.4013849477423246 -1.409190570024288 -1.4113218792457944 -1.4077702933768412 -1.3985501134002125 -1.3836984657264686 -1.3632751526989955 -1.3373624117910736
-1.3060645844645997 -1.2695076960238434 -1.2278389481560292 -1.1812261262020973 -1.1298569235443505 -1.0739381858314505 -1.0136950780839977 -0.9493701780344621
-0.8812224993522716 -0.8095264486871792 -0.7345707207305376 -0.6566571357436743 -0.5760994242342159 -0.49322196367406584 -0.4083584723458215 -0.321850665577018
-0.23404687977312333 -0.14530066978976852 -0.055969385292137463 0.03358726816601909 0.12300867754968803 0.21193477440401187 0.30000748472286753 0.3868721707865164
0.47217905916253017 0.5555846491199543 0.6367530957855112 0.7153575624723774 0.7910815367361622 0.8636201048588086 0.932681179628523 0.9979866764718839
0.9919548128307955 1.052871349219218 1.1095483442887182 1.1617575797839408 1.2092888275404725 1.2519506959994549 1.2895714008738448 1.3219994568631055
1.3491042876310497 1.3707767515906548 1.3869295813787175 1.3974977352507225 1.4024386589809894 1.4017324572135252 1.3953819735735995 1.3834127792174653
1.3658730698663417 1.3428334717392558 1.314386757166183 1.280647471026617 1.2417514695177714 1.197855373109622 1.1491359358895492 1.0957893338360183
1.0380303748871458 0.976091633984956 0.9102225165781692 0.8406882543544874 0.7677688372462005 0.6917578860095503 0.6129614699175749 0.5316968743271726
0.4482913230829543 0.3630806609023088 0.27640800104726715 0.18862234372848985 0.1000771708045991 0.011129022435491409 -0.07786393857904461 -0.16654336899451472
-0.25455218804348834 -0.3415360152738194 -0.4271445975136505 -0.5110332192173195 -0.5928640905131897 -0.6723077073642505 -0.7490441783645705 -0.8227645128290929
-0.8931718649900603 -0.9599827292901559 -1.0229280819593232 -1.0817544642785326 -1.1362250031685905 -1.186120364994422 -1.231239638744214 -1.2714011450271405
00000000: 0000 0000 0000 f03f 29fe 5fad 89fb f03f
00000010: b2cd 83d1 91e5 f13f 240a b02d 27bd f23f
00000020: b8a1 8187 6b81 f33f eeac 018e 9431 f43f
00000030: acbd 32aa eccc f43f e0aa 40ba d352 f53f
00000040: f6e3 91b6 bfc2 f53f 6224 1040 3d1c f63f
00000050: cddb 1517 f05e f63f 2ab3 857a 938a f63f
00000060: da28 aa6e fa9e f63f 0d35 94eb 0f9c f63f
00000070: e429 c9f2 d681 f63f 4d76 298c 6a50 f63f
00000080: 697d 13aa fd07 f63f 6e3b dff4 daa8 f53f
00000090: b7da e87d 6433 f53f c48d 795a 13a8 f43f
000000a0: d4e2 f626 7707 f43f c13a d972 3552 f33f
000000b0: 7dfc 0116 0989 f23f dd71 2170 c1ac f13f
000000c0: 44d7 f292 41be f03f 16f2 55b0 fe7c ef3f
000000d0: 424d 15c8 045d ed3f b971 342b c61e eb3f
000000e0: 2aa0 4ccb 92c4 e83f b96b 4f6b d750 e63f
000000f0: 29c3 a11f 1bc6 e33f f8dd 15b3 fc26 e13f
00000100: 1645 e7e6 5fec dc3f 4e99 b0d0 f56c d73f
00000110: 7cdf 98ee 65d5 d13f 1437 0be0 e756 c83f
00000120: c880 16de d9d3 b93f 0036 aac3 22fa 863f
00000130: 5854 061b 4718 b4bf d89c a5dc 8d7d c5bf
00000140: 74ac 6386 686c d0bf 528c b61f 1c09 d6bf
00000150: 943c a1be 188f dbbf ee0e d768 567c e0bf
00000160: 1f27 0d08 2220 e3bf 7a09 129d 36b0 e5bf
00000170: c8e7 9dda ef29 e8bf cb8b 277f c08a eabf
00000180: e249 48f6 34d0 ecbf 4c39 a8df f5f7 eebf
00000190: 62ea 6b3c e57f f0bf 6d0f cd73 cd72 f1bf
000001a0: 2077 2131 b953 f2bf 5dfe f799 c021 f3bf
000001b0: 9c4b 444d 0fdc f3bf 8a99 4b3e e581 f4bf
000001c0: 64c8 9c7a 9712 f5bf 9ca3 47da 908d f5bf
000001d0: 76b6 9d99 52f2 f5bf 4131 dedb 7440 f6bf
000001e0: 8a2c 4616 a777 f6bf 16ed 1663 b097 f6bf
000001f0: 4893 3cbc 6fa0 f6bf 93c0 581d dc91 f6bf
00000200: b21b 0e8d 046c f6bf af1e 830d 102f f6bf
00000210: 5426 2c74 3ddb f5bf 0a36 0629 e370 f5bf
00000220: 9734 85cd 6ef0 f4bf 3272 91cb 645a f4bf
00000230: 24f6 08cd 5faf f3bf a847 511c 10f0 f2bf
00000240: 140a 9eee 3a1d f2bf c5bf a798 b937 f1bf
00000250: e140 a4ae 7840 f0bf 77aa cf20 ee70 eebf
00000260: aea8 54c5 8941 ecbf 3a3f feec 04f5 e9bf
00000270: 3648 4240 be8d e7bf 4c82 8afc 2f0e e5bf
00000280: 00c8 6a66 ed78 e2bf 6245 1544 40a1 dfbf
00000290: 0683 fde8 0a30 dabf 3444 cde1 d6a3 d4bf
000002a0: 5c5a de50 b804 cebf 10b5 c04a d1a2 c2bf
000002b0: b08e dc9f d1b6 acbf 401b 624d 3b3b a13f
000002c0: c8d0 9984 c28d bf3f 50b4 da53 b02e cb3f
000002d0: 6231 531d 3d3d d33f a2f5 ca05 4dcf d83f
000002e0: 732a 4edf c947 de3f 64e7 5701 88d0 e13f
000002f0: 023a e1fa cd6a e43f d6ba 290d 08f0 e63f
00000300: 06be 0f1b 9d5d e93f 6e59 0667 0cb1 eb3f
00000310: d49a 9227 f0e7 ed3f fdff ffff ffff ef3f
00000320: 934b 29c1 81ef ef3f d7e6 c1e8 c8f2 f03f
00000330: 2804 886d 58dc f13f b6b7 82ac 7eb3 f23f
00000340: 89db d8dd 5d77 f33f b12f da18 2c27 f43f
00000350: e72b 2124 34c2 f43f d150 6230 d647 f53f
00000360: 9f67 287d 88b7 f53f e0df d3e6 d710 f63f
00000370: c4eb 4a5d 6853 f63f 5202 e042 f57e f63f
00000380: 1cf4 0cb3 5193 f63f 5ea9 b9b0 6890 f63f
00000390: add5 de3b 3d76 f63f a653 6e4e ea44 f63f
000003a0: dc58 84c0 a2fc f53f 0f2c fe13 b19d f53f
000003b0: 9764 ac27 7728 f53f c6de 6fd2 6d9d f43f
000003c0: 4064 a966 24fd f33f a66f 7c1e 4048 f33f
000003d0: 4e56 7d71 7b7f f23f de69 7a54 a5a3 f13f
000003e0: 7335 2664 a0b5 f03f e67d fdf6 c36c ef3f
000003f0: e831 c56d e24d ed3f b8f6 b0c9 cb10 eb3f
00000400: b7ee 41cb ceb7 e83f aa31 77f5 5645 e63f
00000410: d9a4 320f eabb e33f d8b2 8a89 251e e13f
00000420: a02a 6e9b 77dd dc3f 4812 c0ea e260 d73f
00000430: 701a 5be0 34cc d13f a07f 1e66 5c4a c83f
00000440: a8da 450c 8ac6 b93f 40b1 400c 4bee 863f
00000450: 68f9 6ab0 eb0d b4bf 9841 254d 7a72 c5bf
00000460: 5cad 0487 f163 d0bf 8474 82a2 c0fd d5bf
00000470: 0f55 b278 e480 dbbf b4e2 ae33 d773 e0bf
00000480: 2e8c f482 4616 e3bf 7687 55f1 08a5 e5bf
00000490: a0ca 1c8e 7b1d e8bf d618 7368 127d eabf
000004a0: 8ce2 672f 5bc1 ecbf 500f 90b7 ffe7 eebf
000004b0: 0b96 d031 6477 f0bf c0b0 c636 cf69 f1bf
000004c0: e686 e206 474a f2bf 5ce1 323f e417 f3bf
000004d0: f3cb 21ec d2d1 f3bf fe89 f063 5377 f4bf
000004e0: 949e 490c bb07 f5bf 6b3f 1d0a 7582 f5bf
000004f0: 6dea 12db 02e7 f5bf 80f1 f1d7 fc34 f6bf
00000500: 2b8f 7a9f 126c f6bf e85f 4169 0b8c f6bf
00000510: d4d6 3740 c694 f6bf 7c57 a524 3a86 f6bf
00000520: a2ef 6d15 7660 f6bf 0321 9d00 a123 f6bf
00000530: 5caa 449b f9cf f5bf 73ad d820 d665 f5bf
00000540: 1dd4 4bfa a3e5 f4bf 5e15 474d e74f f4bf
00000550: eb5c f173 3aa5 f3bf 1c80 d35d 4de6 f2bf
00000560: b883 7cda e413 f2bf 7b25 a1ce d92e f1bf
00000570: 7eca 8754 1838 f0bf 3295 4e91 3d61 eebf
00000580: d7f4 e686 f932 ecbf 7a78 cb02 a4e7 e9bf
00000590: bc60 c474 9a81 e7bf 1a88 56d3 5503 e5bf
000005a0: 8892 4a0f 686f e2bf 6d89 e9da f290 dfbf
000005b0: cb44 f192 8b22 dabf 1258 b688 3399 d4bf
000005c0: cc9e 2d87 3ff5 cdbf e8be 6a5c 3699 c2bf
000005d0: 405c d0ee 04a8 acbf 9089 abb4 5932 a13f
000005e0: 083b 3327 7f7d bf3f b0a5 79be ad20 cb3f
000005f0: e827 dc97 5233 d33f e9ad 507e 83c2 d83f
00000600: 2962 3d84 2e38 de3f a427 4475 59c7 e13f
00000610: 1cd1 4007 4860 e43f 027c f88a 35e4 e63f
00000620: 270a 183a 8a50 e93f 6e2c 51a1 c6a2 eb3f
00000630: b62c 8333 86d8 ed3f 904b 29c1 81ef ef3f
00000640: 69fa 0605 18be ef3f c6ab bca0 8fd8 f03f
00000650: ded0 c0c3 b5c0 f13f 8dd5 b01d 8f96 f23f
00000660: b045 db3d 3f59 f33f 825a f873 fd07 f43f
00000670: d8c2 099f 15a2 f43f a8e8 08e7 e826 f53f
00000680: be4c a460 ee95 f53f 042f 639a b3ee f53f
00000690: 6606 9e12 dd30 f63f ba2c d295 265c f63f
000006a0: da82 ef84 6370 f63f ba94 5703 7f6d f63f
000006b0: 22d3 5e0c 7c53 f63f 3fb8 3970 7522 f63f
000006c0: 4c02 59b8 9dda f53f 0682 51f3 3e7c f53f
000006d0: 2030 8568 ba07 f53f 183b dc33 887d f43f
000006e0: 996b f5c9 36de f33f d07f 4d65 6a2a f33f
000006f0: 0cdd f45c dc62 f23f e819 8265 5a88 f13f
00000700: 8e51 06bd c59b f03f b5aa bb85 243c ef3f
00000710: 5c27 99f8 8a20 ed3f ecae d20d ebe6 ea3f
00000720: 3788 dbf3 8f91 e83f da27 256f e122 e63f
00000730: 5c21 605f 619d e33f 30dc d329 a903 e13f
00000740: ee32 ee16 ceb0 dc3f bdab 18ab b63c d73f
00000750: a072 362f abb0 d13f 04eb cde6 c624 c83f
00000760: e094 ae4f a89e b93f 80d2 2c1b d0ca 863f
00000770: 8818 bc1d e4ee b3bf 9c3a 9909 4b51 c5bf
00000780: da68 b142 954a d0bf 2476 00e0 b9db d5bf
00000790: 54fd 3e4b 5656 dbbf d2a7 7656 625a e0bf
000007a0: 0a43 f71c bef8 e2bf 5e4d ff73 8b83 e5bf
000007b0: 7eb8 2a7f 2bf8 e7bf 6521 5d3e 1654 eabf
000007c0: 4dde ba29 dd94 ecbf 54d5 60b3 2db8 eebf
000007d0: 08ce 22d6 e95d f0bf 820d e6c4 dd4e f1bf
000007e0: 011b d844 fa2d f2bf 7c54 0c59 59fa f2bf
000007f0: c21f df55 28b3 f3bf fcd0 1fba a857 f4bf
