_static/demonstration_assets/vqe_qng/param_landscape.npy (npy, 80128 bytes, 1 tensors)

array f8 [100, 100]
00000000: 0000 0000 0000 f03f 934b 29c1 81ef ef3f
00000010: 69fa 0605 18be ef3f 24e9 37bb f56b ef3f
00000020: 247f 168e 6ff9 ee3f ef49 728b fb66 ee3f
00000030: 5cb1 deaa 30b5 ed3f 7e35 1432 c6e4 ec3f
00000040: 5ea1 04f8 92f6 eb3f b9f0 6487 8ceb ea3f
00000050: 5732 9121 c6c4 e93f 3a50 cfa2 6f83 e83f
00000060: b439 1549 d428 e73f 9650 955e 59b6 e53f
00000070: 3f13 71c9 7c2d e43f 04ab 0d82 d38f e23f
00000080: 5c2c a0f1 07df e03f 58b5 3f75 b039 de3f
00000090: b712 c7d9 2896 da3f 8a53 884e 39d7 d63f
000000a0: 5c43 6351 be00 d33f 905a e04a 592d ce3f
000000b0: 8c73 0b7e 1a3a c63f 24ec b86b e45f bc3f
000000c0: 6820 b028 a85c a83f b0fa 28cf 2a3f 90bf
000000d0: 0cc9 e8a4 b949 b4bf dc44 0f64 5f37 c2bf
000000e0: 4ede abda 1a37 cabf 9280 c22e e80d d1bf
000000f0: 3d21 8177 aeee d4bf 378b f4e7 e0b9 d8bf
00000100: 8cc9 985e 966b dcbf 0200 0000 0000 e0bf
00000110: d0e6 dc91 b6b9 e1bf cdb4 0c91 2761 e3bf
00000120: 8658 777f 9ef4 e4bf dc3e b576 7b72 e6bf
00000130: 5c52 c7d4 34d9 e7bf 25e0 dad1 5827 e9bf
00000140: 5e1c 77fd 8e5b eabf 8959 8ba1 9974 ebbf
00000150: c1f2 ef09 5771 ecbf da4f 08af c250 edbf
00000160: 1b2d 5242 f611 eebf 5750 cd9b 2ab4 eebf
00000170: 42f2 4687 b836 efbf 053d b570 1999 efbf
00000180: 5e34 f1ee e7da efbf 0807 402c e0fb efbf
00000190: 0807 402c e0fb efbf 5e34 f1ee e7da efbf
000001a0: 053d b570 1999 efbf 43f2 4687 b836 efbf
000001b0: 5650 cd9b 2ab4 eebf 1b2d 5242 f611 eebf
000001c0: d94f 08af c250 edbf c1f2 ef09 5771 ecbf
000001d0: 8959 8ba1 9974 ebbf 5e1c 77fd 8e5b eabf
000001e0: 25e0 dad1 5827 e9bf 5e52 c7d4 34d9 e7bf
000001f0: d93e b576 7b72 e6bf 8858 777f 9ef4 e4bf
00000200: ccb4 0c91 2761 e3bf d0e6 dc91 b6b9 e1bf
00000210: f6ff ffff ffff dfbf 86c9 985e 966b dcbf
00000220: 378b f4e7 e0b9 d8bf 4321 8177 aeee d4bf
00000230: 8c80 c22e e80d d1bf 4ede abda 1a37 cabf
00000240: dc44 0f64 5f37 c2bf 24c9 e8a4 b949 b4bf
00000250: 50fa 28cf 2a3f 90bf a020 b028 a85c a83f
00000260: 0cec b86b e45f bc3f 7a73 0b7e 1a3a c63f
00000270: 945a e04a 592d ce3f 5c43 6351 be00 d33f
00000280: 8453 884e 39d7 d63f be12 c7d9 2896 da3f
00000290: 58b5 3f75 b039 de3f 5c2c a0f1 07df e03f
000002a0: 00ab 0d82 d38f e23f 4213 71c9 7c2d e43f
000002b0: 9650 955e 59b6 e53f b439 1549 d428 e73f
000002c0: 3750 cfa2 6f83 e83f 5832 9121 c6c4 e93f
000002d0: b9f0 6487 8ceb ea3f 5ea1 04f8 92f6 eb3f
000002e0: 7e35 1432 c6e4 ec3f 5db1 deaa 30b5 ed3f
000002f0: ef49 728b fb66 ee3f 237f 168e 6ff9 ee3f
00000300: 25e9 37bb f56b ef3f 69fa 0605 18be ef3f
00000310: 934b 29c1 81ef ef3f 0000 0000 0000 f03f
00000320: 29fe 5fad 89fb f03f d7e6 c1e8 c8f2 f03f
00000330: c8ab bca0 8fd8 f03f 3667 82dd f8ac f03f
00000340: f6c5 c48d 3170 f03f 8bcd 6358 7822 f03f
00000350: e047 b1b7 3a88 ef3f a5d7 3db7 03ab ee3f
00000360: feae e3b7 2fae ed3f 3899 8858 c392 ec3f
00000370: 807f dac1 e259 eb3f 627f 2579 d004 ea3f
00000380: 1cd2 dd13 ec94 e83f bc3a 34cd b00b e73f
00000390: d491 2aff b36a e53f c666 bb80 a3b3 e33f
000003a0: 2570 c3ea 43e8 e13f a989 75c5 6e0a e03f
000003b0: fc59 7440 2138 dc3f f622 e32b 4e3e d83f
000003c0: 81ad 477f 7d2b d43f aa76 792f e203 d03f
000003d0: f636 0140 8997 c73f 60bd 9de3 f81d be3f
000003e0: 584b 0a58 a7db a93f b0d3 a58b 953e 91bf
000003f0: 3440 50c8 ac88 b5bf babe 05cc c055 c3bf
00000400: da50 d9e3 3cd3 cbbf 2acc 0019 051a d2bf
00000410: 5a0e fce6 c237 d6bf d841 afa3 993e dabf
00000420: 7f1c b2b2 622a debf 2cfe 5fad 89fb e0bf
00000430: 71bf 2a78 60d0 e2bf a2b6 a16f d291 e4bf
00000440: 42c7 8647 103e e6bf dc25 098f 60d3 e7bf
00000450: e046 d177 2150 e9bf 34d8 af84 cab2 eabf
00000460: 9fcf 331e eef9 ebbf 6480 860b 3b24 edbf
00000470: eb3d 09ce 7d30 eebf 3037 4ede a11d efbf
00000480: 1ccd 25c9 b2ea efbf b846 cd95 6e4b f0bf
00000490: c008 6cc6 b790 f0bf a811 8e8a edc4 f0bf
000004a0: e2c9 7a10 dae7 f0bf e87c 1c58 59f9 f0bf
000004b0: e87c 1c58 59f9 f0bf e2c9 7a10 dae7 f0bf
000004c0: a811 8e8a edc4 f0bf c008 6cc6 b790 f0bf
000004d0: b846 cd95 6e4b f0bf 1ecd 25c9 b2ea efbf
000004e0: 2f37 4ede a11d efbf ec3d 09ce 7d30 eebf
000004f0: 6480 860b 3b24 edbf 9fcf 331e eef9 ebbf
00000500: 32d8 af84 cab2 eabf e146 d177 2150 e9bf
00000510: d825 098f 60d3 e7bf 46c7 8647 103e e6bf
00000520: a0b6 a16f d291 e4bf 72bf 2a78 60d0 e2bf
00000530: 26fe 5fad 89fb e0bf 7d1c b2b2 622a debf
00000540: d841 afa3 993e dabf 5b0e fce6 c237 d6bf
00000550: 1fcc 0019 051a d2bf da50 d9e3 3cd3 cbbf
00000560: babe 05cc c055 c3bf 5840 50c8 ac88 b5bf
00000570: e0d2 a58b 953e 91bf 704b 0a58 a7db a93f
00000580: 40bd 9de3 f81d be3f e836 0140 8997 c73f
00000590: aa76 792f e203 d03f 81ad 477f 7d2b d43f
000005a0: ec22 e32b 4e3e d83f 065a 7440 2138 dc3f
000005b0: a989 75c5 6e0a e03f 2570 c3ea 43e8 e13f
000005c0: c266 bb80 a3b3 e33f d891 2aff b36a e53f
000005d0: bd3a 34cd b00b e73f 1cd2 dd13 ec94 e83f
000005e0: 607f 2579 d004 ea3f 827f dac1 e259 eb3f
000005f0: 3899 8858 c392 ec3f feae e3b7 2fae ed3f
00000600: a4d7 3db7 03ab ee3f e047 b1b7 3a88 ef3f
00000610: 8bcd 6358 7822 f03f f6c5 c48d 3170 f03f
00000620: 3667 82dd f8ac f03f c8ab bca0 8fd8 f03f
00000630: d7e6 c1e8 c8f2 f03f 29fe 5fad 89fb f03f
00000640: b2cd 83d1 91e5 f13f 2904 886d 58dc f13f
00000650: dcd0 c0c3 b5c0 f13f 2b7d e550 c692 f13f
00000660: 32f5 da6e b952 f13f f044 e423 d100 f13f
00000670: b260 93de 619d f03f b260 c01e d228 f03f
00000680: 7dcf c117 3447 ef3f c83d 59f2 851c ee3f
00000690: 46e6 1cb0 cdd2 ec3f 6501 e932 5f6b eb3f
000006a0: 6880 44fd ace7 e93f 5a13 73b4 4649 e83f
000006b0: 448e 7e84 d791 e63f f656 e067 24c3 e43f
000006c0: 10c4 9054 0adf e23f 7ac2 5d50 7ce7 e03f
000006d0: 9123 07dd 02bd dd3f ffb3 3371 658c d93f
000006e0: 4456 f909 7241 d53f c01b d879 95e0 d03f
000006f0: 7858 b652 a6dc c83f 84a7 4ec0 01bd bf3f
00000700: 4870 b8d8 fe3f ab3f 606f 03a2 392c 92bf
00000710: 5429 0c56 6db1 b6bf 162c f2e3 3360 c4bf
00000720: b678 5b23 b052 cdbf 2f36 262a 7913 d3bf
00000730: c6ec 2e45 f069 d7bf a89f b9b1 44a8 dbbf
00000740: a474 d69f 16ca dfbf b2cd 83d1 91e5 e1bf
00000750: fecd 248b a5d3 e3bf e7d1 a42e 49ad e5bf
00000760: f683 337f 9470 e7bf 4ecf a248 b61b e9bf
00000770: aeab f13e f6ac eabf 5c36 2ac4 b622 ecbf
00000780: 3d3c bf92 767b edbf 00b4 b14a d2b5 eebf
00000790: d2c4 e4df 85d0 efbf 995d 13f4 3665 f0bf
000007a0: c24b cb63 44d1 f0bf 2547 18dd fb2b f1bf
000007b0: 3bdf b7dc ff74 f1bf 2234 8c1e 05ac f1bf
000007c0: 60f4 31eb d2d0 f1bf 4743 7752 43e3 f1bf
000007d0: 4743 7752 43e3 f1bf 60f4 31eb d2d0 f1bf
000007e0: 2234 8c1e 05ac f1bf 3cdf b7dc ff74 f1bf
000007f0: 2547 18dd fb2b f1bf c24b cb63 44d1 f0bf
1.0 0.9979866764718842 0.9919548128307955 0.9819286972627066 0.9679487013963564 0.9500711177409452 0.9283679330160726 0.9029265382866212
0.8738493770697848 0.8412535328311811 0.8052702575310587 0.7660444431189781 0.7237340381050701 0.6785094115571322 0.6305526670845224 0.5800569095711983
0.5272254676105024 0.4722710747726828 0.4154150130018865 0.3568862215918719 0.296920375328275 0.2357589355094274 0.17364817766693041 0.11083819990101113
0.047581915823742105 -0.015865963834807928 -0.07924995685678854 -0.14231483827328517 -0.2048066680651907 -0.266473813690035 -0.32706796331742166 -0.3863451256931287
-0.4440666126057742 -0.5000000000000002 -0.5539200638661104 -0.6056096871376667 -0.654860733945285 -0.7014748877063215 -0.7452644496757546 -0.7860530947427874
-0.8236765814298328 -0.857983413234977 -0.8888354486549234 -0.9161084574320697 -0.9396926207859083 -0.9594929736144974 -0.9754297868854069 -0.9874388886763944
-0.9954719225730846 -0.9994965423831852 -0.9994965423831852 -0.9954719225730846 -0.9874388886763944 -0.975429786885407 -0.9594929736144973 -0.9396926207859083
-0.9161084574320696 -0.8888354486549234 -0.857983413234977 -0.8236765814298328 -0.7860530947427874 -0.7452644496757548 -0.7014748877063212 -0.6548607339452852
-0.6056096871376666 -0.5539200638661104 -0.49999999999999944 -0.44406661260577385 -0.3863451256931287 -0.327067963317422 -0.26647381369003464 -0.2048066680651907
-0.14231483827328517 -0.07924995685678887 -0.015865963834807595 0.04758191582374249 0.11083819990101079 0.17364817766692991 0.2357589355094275 0.296920375328275
0.35688622159187156 0.4154150130018869 0.4722710747726828 0.5272254676105024 0.5800569095711978 0.6305526670845227 0.6785094115571322 0.7237340381050701
0.7660444431189778 0.8052702575310589 0.8412535328311811 0.8738493770697848 0.9029265382866212 0.9283679330160727 0.9500711177409452 0.9679487013963562
0.9819286972627067 0.9919548128307955 0.9979866764718842 1.0 1.0614105961284486 1.0592736332022719 1.0528713492192185 1.0422295239172406
1.0273910081708642 1.0084155514458384 0.9853795612091254 0.9583757952629993 0.9275129882421138 0.8929154137775077 0.8547223840905502 0.8130876890318002
0.7681789768235521 0.7201770789996185 0.6692752822605663 0.6156785501763913 0.5596026978705636 0.5012735230086963 0.4409258965910394 0.37880281720985864
0.3151544325798668 0.2502370322816697 0.18431201577407536 0.11764483983073637 0.05050394963941213 -0.016840302132056173 -0.08411674395051777 -0.1510544773295715
-0.21738396764215545 -0.2828381294413612 -0.34715340191926247 -0.4100708101732642 -0.4713370080066354 -0.5307052980642246 -0.5879366251956367 -0.6428005390459541
-0.6950761219979784 -0.7445528787295035 -0.791031583803683 -0.8343250838795542 -0.8742590513124816 -0.910672686110058 -0.9434193634169196 -0.972367223921287
-0.9973997048058751 -1.0184160091052217 -1.0353315115794857 -1.048078099470425 -1.0566044467674307 -1.0608762208792601 -1.0608762208792601 -1.0566044467674307
-1.048078099470425 -1.0353315115794857 -1.0184160091052217 -0.9973997048058754 -0.9723672239212869 -0.9434193634169197 -0.910672686110058 -0.8742590513124816
-0.834325083879554 -0.7910315838036831 -0.744552878729503 -0.6950761219979789 -0.6428005390459539 -0.5879366251956368 -0.530705298064224 -0.4713370080066353
-0.4100708101732642 -0.3471534019192625 -0.2828381294413606 -0.21738396764215545 -0.1510544773295715 -0.08411674395051827 -0.01684030213205545 0.05050394963941229
0.11764483983073593 0.18431201577407497 0.2502370322816697 0.3151544325798668 0.3788028172098581 0.44092589659104 0.5012735230086963 0.5596026978705636
0.6156785501763908 0.6692752822605668 0.7201770789996186 0.7681789768235521 0.8130876890318 0.8547223840905505 0.8929154137775077 0.9275129882421138
0.9583757952629992 0.9853795612091254 1.0084155514458384 1.0273910081708642 1.0422295239172406 1.0528713492192185 1.0592736332022719 1.0614105961284486
1.1185472664045446 1.1162952688757832 1.1095483442887177 1.0983336601273759 1.0826963739667232 1.0626994516390447 1.0384234136927657 1.0099660111646185
0.977441831970722 0.9409818395014833 0.9007328452782495 0.8568569177951245 0.8095307299263483 0.7589448475269862 0.7053029620914875 0.6488210705599318
0.5897266055745849 0.5282575196889205 0.4646613272166685 0.399194107579035 0.3321194741632534 0.26370751284451543 0.19423369444547567 0.12397776551247658
0.0532226218749377 -0.01774683047629766 -0.08864482260483914 -0.159185873319388 -0.22908593870574173 -0.2980635558713826 -0.3658409762972038 -0.43214528423276954
-0.4967094956317146 -0.5592736332022723 -0.6195857732440684 -0.6774030600559485 -0.7324926838301724 -0.7846328180953408 -0.8336135129333024 -0.8792375403733774
-0.9213211885597797 -0.9596950014944241 -0.9942044613764216 -1.0247106107907256 -1.0510906122406003 -1.073238242770864 -1.091064321690239 -1.1044970696705225
-1.1134823977766004 -1.1179841252635059 -1.1179841252635059 -1.1134823977766004 -1.1044970696705225 -1.0910643216902391 -1.073238242770864 -1.0510906122406003
